logs/hyperspecae_final.pt (torch, 592752 bytes, 38 tensors)

conv_enc.conv_hidden_1.weight f4 [27, 156, 3, 3]
0	0x3e2e7b9d	0.17039342
1	0x3e4ec836	0.20193562
2	0x3ef58e94	0.4796034
3	0x3e35f491	0.17769076
4	0x3e28e16b	0.1649224
5	0x3ecbc676	0.3979985
6	0x3dd918f0	0.106004596
7	0xbe21420d	-0.15747853
8	0x3c37ff34	0.011230279
9	0x3e89878c	0.26861227
10	0x3ea0a896	0.3137862
11	0x3f069cfe	0.525833
12	0x3e7f2a61	0.2491851
13	0x3e8d1ad3	0.27559528
14	0x3eff439c	0.4985627
15	0x3e5da537	0.21645056
16	0xbbb6c4e0	-0.0055776685
17	0x3dc2b82b	0.095077835
18	0x3e967982	0.29389578
19	0x3e983dda	0.2973469
20	0x3ef5b422	0.47988993
21	0x3e8b068f	0.2715344
22	0x3ea4ad65	0.3216354
23	0x3efcb693	0.49358043
24	0x3e849d97	0.25901482
25	0x3e095488	0.13411152
26	0x3e695a8e	0.2278845
27	0x3e8a92da	0.27065164
28	0x3e90c6bd	0.28276625
29	0x3ed7f6f6	0.42180604
30	0x3e8b41d9	0.27198675
31	0x3ea61445	0.3243734
32	0x3f01e29c	0.50736403
33	0x3e6fb027	0.2340704
34	0x3dd8b940	0.10582209
35	0x3e813de6	0.25242537
36	0x3e8f1310	0.2794423
37	0x3e9023aa	0.2815221
38	0x3ee7f09a	0.45300752
39	0x3e64b419	0.22334327
40	0x3e80e72c	0.2517637
41	0x3eef45e1	0.46733
42	0x3e517038	0.20452964
43	0x3cca80ca	0.024719615
44	0x3e299b67	0.16563188
45	0x3ea3b998	0.31977534
46	0x3e939b82	0.2882958
47	0x3edb9348	0.42885804
48	0x3e85433c	0.26027858
49	0x3e959c36	0.29220742
50	0x3ef30cd6	0.4747073
51	0x3e6a0d85	0.2285672
52	0x3d5baeba	0.05363343
53	0x3e549c48	0.20762742
54	0x3ea42c6d	0.32065144
55	0x3e7b2a8f	0.24527954
56	0x3ee2bd96	0.44285268
57	0x3e863e70	0.2621951
58	0x3e627028	0.22113097
59	0x3ee33498	0.44376063
60	0x3e482ae2	0.19547608
61	0xbd15a31e	-0.036532514
62	0x3dd03cb8	0.10167831
63	0x3e94a70c	0.29033697
64	0x3e8b96b7	0.27263424
65	0x3ee169b3	0.44025955
66	0x3e7adbd5	0.24497922
67	0x3e95deaf	0.29271457
68	0x3edef1f3	0.43543968
69	0x3e667cb0	0.22508502
70	0x3d8ed564	0.06974295
71	0x3e3ea4f3	0.1861761
72	0x3eb0aba0	0.3450594
73	0x3e8574ca	0.26065665
74	0x3ee72e02	0.4515229
75	0x3e953fc2	0.29150206
76	0x3e8a3184	0.26990902
77	0x3ef4499d	0.47712412
78	0x3e928bc7	0.28622267
79	0x3dc66f39	0.09689183
80	0x3e8dd22e	0.27699417
81	0x3e9c8647	0.30571195
82	0x3e7bc3f8	0.24586475
83	0x3ee02c6c	0.4378389
84	0x3e8e2c14	0.27768004
85	0x3e900cb0	0.2813468
86	0x3f0570f0	0.52125454
87	0x3e8f4811	0.2798467
88	0x3d849587	0.064738326
89	0x3e72ddfb	0.23717491
90	0x3e9fc60c	0.31205785
91	0x3e73e2f1	0.2381704
92	0x3ed6fa14	0.4198767
93	0x3e977011	0.29577687
94	0x3e9b3ebd	0.30321303
95	0x3f098284	0.53714776
96	0x3e892c3a	0.26791555
97	0x3de05665	0.109539784
98	0x3e883fd2	0.2661119
99	0x3eadf44c	0.33975446
100	0x3e7e6147	0.24841796
101	0x3eded874	0.43524516
102	0x3e91be9f	0.28465745
103	0x3e93a3aa	0.28835803
104	0x3ef9ee08	0.48814416
105	0x3e84ec3a	0.25961477
106	0x3d83ef9d	0.06442187
107	0x3e92676c	0.2859453
108	0x3eab9a98	0.33516383
109	0x3e788a8f	0.24271606
110	0x3ee3d6db	0.4449986
111	0x3e94d3f9	0.29067972
112	0x3ea12763	0.31475362
113	0x3efcd198	0.49378657
114	0x3e815ed9	0.25267676
115	0x3d51c0db	0.051209312
116	0x3e6bbf7f	0.23022269
117	0x3ea8db69	0.32979897
118	0x3e6d258a	0.23158851
119	0x3ee4f689	0.4471934
120	0x3e932dae	0.28745788
121	0x3e9d04ab	0.30667624
122	0x3f043144	0.51637673
123	0x3e9630b3	0.2933403
124	0x3dd7e1a4	0.105410844
125	0x3e83cf90	0.25744295
126	0x3ea7aedf	0.32750604
127	0x3e811dc3	0.2521802
128	0x3ef0a3c5	0.46999946
129	0x3e9a3611	0.30119374
130	0x3e9090f7	0.282356
131	0x3f01d556	0.5071615
132	0x3e97f301	0.29677585
133	0x3e0f6e39	0.1400689
134	0x3e79cd26	0.24394664
135	0x3ea73593	0.3265806
136	0x3e889ec9	0.26683643
137	0x3ee1969e	0.44060224
138	0x3e9a48fb	0.30133805
139	0x3ea46f27	0.32116053
140	0x3f070b5c	0.5275171
141	0x3e96eaee	0.29476112
142	0x3e1097f7	0.1412047
143	0x3e942a00	0.28938293
144	0x3eaffc5b	0.3437222
145	0x3e94a62a	0.29033023
146	0x3eefedd5	0.4686114
147	0x3e8d394f	0.27582785
148	0x3e94d1fc	0.29066455
149	0x3f0ad63a	0.54233134
150	0x3e957029	0.29187134
151	0x3e07869d	0.13234945
152	0x3e83eaa3	0.2576495
153	0x3ebd7411	0.37002614
154	0x3e77bb54	0.24192554
155	0x3eee5758	0.46551013
156	0x3ea1bf48	0.3159125
157	0x3e9851a6	0.29749793
158	0x3f006f76	0.50170076
159	0x3e908cf0	0.28232527
160	0x3df62ae8	0.120199025
161	0x3e983d8c	0.29734457
162	0x3eb49380	0.35268784
163	0x3e7759e3	0.24155383
164	0x3ee7e299	0.45290068
165	0x3ea4d536	0.32193917
166	0x3eaa53fa	0.33267194
167	0x3f0adb54	0.5424092
168	0x3ea43f6e	0.32079643
169	0x3e115c7c	0.14195436
170	0x3e8a2b2a	0.26986057
171	0x3ebf7e2d	0.37400952
172	0x3e70b939	0.23508157
173	0x3ee06ebc	0.43834484
174	0x3ea398a1	0.31952384
175	0x3e99ca62	0.30037218
176	0x3f0c86ed	0.5489338
177	0x3ea82cff	0.3284683
178	0x3dfdb1e6	0.12387447
179	0x3e8d044d	0.27542344
180	0x3eb002c1	0.343771
181	0x3e8e0c28	0.2774365
182	0x3ee92115	0.45533052
183	0x3e9a8b13	0.3018423
184	0x3ea02dfc	0.31285083
185	0x3f16e81d	0.58947927
186	0x3e972f0c	0.2952808
187	0x3df3f81d	0.11912558
188	0x3e8c58b8	0.27411437
189	0x3eae7556	0.34073895
190	0x3e818739	0.2529848
191	0x3ee44d60	0.44590282
192	0x3e9c8f6b	0.3057817
193	0x3eb4cff6	0.35314912
194	0x3f12b690	0.5730982
195	0x3e9eff84	0.31054318
196	0x3df41f3f	0.11920022
197	0x3ea321e0	0.31861782
198	0x3eaf9714	0.3429495
199	0x3e896343	0.26833543
200	0x3ee5ffd0	0.44921732
201	0x3e9f4e25	0.31114307
202	0x3eaafa60	0.33394146
203	0x3f1337cc	0.57507014
204	0x3ea2237f	0.31667706
205	0x3e11a204	0.1422196
206	0x3e997305	0.29970565
207	0x3ebc46de	0.36772817
208	0x3e8d2ba4	0.27572358
209	0x3efd2df5	0.49449125
210	0x3eaa9d83	0.33323297
211	0x3ea91ede	0.33031362
212	0x3f0f2a40	0.55923843
213	0x3ea59e65	0.32347408
214	0x3dfec0e3	0.12439134
215	0x3e884024	0.26611435
216	0x3eb8e545	0.3611242
217	0x3e8ccbaa	0.27499133
218	0x3efcf67c	0.49406803
219	0x3e9b5ebb	0.3034571
220	0x3eb2c66d	0.34917012
221	0x3f1555c2	0.5833398
222	0x3eafb291	0.34315923
223	0x3e033fa7	0.1281725
224	0x3e880b1e	0.26570982
225	0x3ec1f827	0.37884638
226	0x3e994304	0.2993394
227	0x3f0192c7	0.5061459
228	0x3e9974cb	0.29971918
229	0x3ea9ecf0	0.3318858
230	0x3f0b616f	0.54445547
231	0x3e97f19f	0.2967653
232	0x3df3488a	0.1187907
233	0x3e8ae148	0.27125
234	0x3ec03a79	0.3754461
235	0x3e8bd8f1	0.2731395
236	0x3eff8295	0.49904314
237	0x3eab0c27	0.3340771
238	0x3ea9f1ff	0.3319244
239	0x3f0dea6b	0.5543582
240	0x3e9d268e	0.30693477
241	0x3db07a61	0.08617092
242	0x3e81d308	0.25356317
243	0x3ec578a8	0.38568616
244	0x3e876b20	0.26448917
245	0x3ee567ad	0.4480566
246	0x3eb74648	0.35795808
247	0x3eb27531	0.34855035
248	0x3f13f3b1	0.5779372
249	0x3e9c93dc	0.30581558
250	0x3ddf7673	0.10911264
251	0x3eaa009e	0.33203596
252	0x3ec669e7	0.38752672
253	0x3e9a4393	0.3012968
254	0x3efb1b5a	0.49044305
255	0x3eba6f83	0.36413202

conv_enc.conv_hidden_1.bias f4 [27]
0	0x3f70672a	0.93907416
1	0xbf9869ff	-1.1907347
2	0x3e515902	0.2044411
3	0x3f368dd1	0.71310145
4	0x3f833a8c	1.0252242
5	0xbfda4208	-1.7051401
6	0x3f3b47ea	0.7315661
7	0x3f0ea597	0.5572142
8	0xbfec8bb0	-1.8480129
9	0xbf0757d8	-0.52868414
10	0xbe909029	-0.28234985
11	0xbf97721f	-1.1831702
12	0xbf893fc0	-1.072258
13	0xbff9e8f8	-1.9524221
14	0xbff60248	-1.9219446
15	0x3f9f78b8	1.2458715
16	0xbfc43261	-1.5327874
17	0x3fa06097	1.2529477
18	0x3f4f315e	0.80934703
19	0xbff9fa65	-1.9529539
20	0xbff2d107	-1.897004
21	0x3f8545bb	1.0411905
22	0xbf90090d	-1.1252762
23	0xbed2c9ec	-0.4116968
24	0x3f714886	0.94251287
25	0xbfc58a82	-1.5432894
26	0xbfb8b8d8	-1.443141

conv_enc.conv_hidden_2.weight f4 [18, 27, 3, 3]
0	0x3dbfb7ad	0.09361205
1	0xbcd3c05f	-0.025848566
2	0x3d3f7fe1	0.046752814
3	0xbcc43cf9	-0.023954855
4	0xbcdb9690	-0.026805192
5	0x3afcd109	0.0019288372
6	0x3db1ca9e	0.08681224
7	0x3d7726ec	0.060339853
8	0x3db00d61	0.08596302
9	0x3da77fc3	0.081786655
10	0x3e1e6e13	0.15471677
11	0x3dc693db	0.0969617
12	0xbde61088	-0.11233622
13	0xbe5d805c	-0.21630996
14	0x3b878e7e	0.0041368594
15	0x3d9c7e42	0.07641269
16	0x3cc99eec	0.024611913
17	0x3d249197	0.040177908
18	0xbccbed85	-0.024893532
19	0xbe422efc	-0.18963236
20	0x3ca9e537	0.020739181
21	0xbdf7bab5	-0.120961584
22	0x3dad21db	0.08453723
23	0x3ddfff78	0.10937399
24	0xbcd80335	-0.026368717
25	0x3d4433a1	0.0479008
26	0x3e1b7ccd	0.15184326
27	0xbe1bd01b	-0.15216105
28	0xbd41b61f	-0.047292825
29	0x3d8e8184	0.06958297
30	0xbdf16d10	-0.1178838
31	0xbb853854	-0.0040655527
32	0x3cb75453	0.022379076
33	0xbd065247	-0.03279331
34	0xbdc36d82	-0.09542371
35	0xbde8a2e8	-0.11359197
36	0x3dd534a3	0.1041043
37	0x3d882501	0.06647683
38	0x3d717854	0.058952644
39	0x3d50aac5	0.05094411
40	0x3c4726c3	0.012155238
41	0x3d827571	0.063700564
42	0x3da85a29	0.08220322
43	0x3c78d58c	0.015187632
44	0x3dc294e1	0.09501053
45	0xbd136224	-0.035982266
46	0xbd13bf5d	-0.03607117
47	0x3c61705c	0.013759699
48	0x3e4bc4da	0.19899312
49	0x3e54d18e	0.20783064
50	0x3db1a2fd	0.08673666
51	0x3e1ac1ca	0.15112987
52	0x3e151f83	0.14562802
53	0x3bcee30e	0.006313688
54	0x3d31700b	0.043319743
55	0xbc3b8cae	-0.011447115
56	0x3da8556b	0.08219417
57	0xbdb2deb1	-0.08733881
58	0xbe0071e2	-0.12543443
59	0xbc6140e1	-0.0137483785
60	0xbda66273	-0.081242464
61	0xbdffab61	-0.1248386
62	0x3c3741ef	0.011185153
63	0xbe2211f2	-0.15827158
64	0x3cce5971	0.025189133
65	0x3d1c91a8	0.038224846
66	0x3bbdbd8e	0.005790419
67	0xbc74748a	-0.014920363
68	0x3cf16b0b	0.029469987
69	0x3e3a014a	0.18164554
70	0xbdb097af	-0.08622681
71	0xbe2a0aba	-0.16605654
72	0xbddcfd30	-0.10790479
73	0x3d879f03	0.06622126
74	0x3c7ff07c	0.015621301
75	0xbd9c79ec	-0.07640442
76	0x3deec910	0.116594434
77	0x3e00d200	0.12580109
78	0xbe6a1951	-0.2286122
79	0x3d80f130	0.06296003
80	0x3dfedfed	0.12445054
81	0xbea15f2f	-0.31517932
82	0xbd2b1380	-0.041766644
83	0xbdf82226	-0.12115888
84	0xbeb3abf8	-0.3509214
85	0xbdc0ca51	-0.09413589
86	0xbe0737dd	-0.13204904
87	0xbe6f0b74	-0.23344213
88	0x3d86e49e	0.06586574
89	0x3d47f2c5	0.048815507
90	0x3d82680f	0.06367504
91	0xbd0ce595	-0.034398634
92	0x3e1196ce	0.14217684
93	0x3e145ff5	0.1448973
94	0xbe393d23	-0.18089728
95	0x3e0bb3ae	0.13642761
96	0x3e2539d1	0.16135336
97	0x3dff1add	0.12456296
98	0x3ef4b56f	0.47794673
99	0xbe7d3075	-0.24725516
100	0xbbb3a9b3	-0.005482876
101	0xbe1681aa	-0.146979
102	0xbdc55d47	-0.09636932
103	0xbdf4d3f3	-0.119544886
104	0xbe0cd317	-0.137524
105	0x3dde4159	0.10852308
106	0xbc7b52b4	-0.015339542
107	0x3da80a1c	0.08205053
108	0xbdfe4e40	-0.12417269
109	0xbe16418f	-0.14673446
110	0xbdb1d539	-0.08683247
111	0xbd61af36	-0.055098735
112	0xbdf0c22b	-0.117557846
113	0xbe097ffe	-0.13427731
114	0xbdb5ac05	-0.08870701
115	0xbe799581	-0.24373437
116	0xbe58b1c3	-0.2116156
117	0xbe6661a5	-0.22498186
118	0xbe4077a6	-0.18795642
119	0xbe30fe24	-0.17284447
120	0xbeb8410a	-0.3598712
121	0xba85a61c	-0.0010196599
122	0x3d2fdb03	0.042933475
123	0x3db9e8ff	0.090776436
124	0x3d88ee10	0.06686032
125	0x3e5d0ac8	0.21586144
126	0xbd7e27b3	-0.06204958
127	0xbd25f2ea	-0.040514864
128	0xbd5d23b3	-0.053989124
129	0xbda78cc0	-0.08181143
130	0x3a786f61	0.0009477046
131	0x3c88d452	0.016702805
132	0x3cb7e3fa	0.022447575
133	0x3c12869b	0.008943225
134	0x3d7c0de4	0.061536685
135	0xbe8a2070	-0.26977873
136	0xbd6e2a12	-0.05814559
137	0xbd889f11	-0.066709645
138	0xbe1334c5	-0.14375599
139	0xbe11fa75	-0.14255698
140	0x3e0be11f	0.13660096
141	0x3da1da75	0.079029955
142	0xbd2b9917	-0.041894045
143	0xbd8068fb	-0.062700234
144	0xbc407575	-0.011746754
145	0x3d8eeddc	0.06978962
146	0xbdd70e04	-0.1050072
147	0xbec1a82b	-0.37823614
148	0x3d950798	0.07276839
149	0x3de0264c	0.109448045
150	0x3de0ff13	0.109861515
151	0x3ea6905d	0.32532015
152	0x3e2a0095	0.16601785
153	0x3cbd7fdd	0.023132259
154	0x3a3db88d	0.0007237278
155	0xbb4a0ed8	-0.0030831601
156	0x3ca18ea7	0.019721342
157	0x3d0d9f35	0.03457566
158	0x3d8244bd	0.06360767
159	0x3d818690	0.06324494
160	0x3d0dcc1b	0.03461848
161	0x3dbff7a4	0.093734056
162	0x3d3467b8	0.044044226
163	0x3dc1e3ae	0.094672546
164	0x3c711328	0.01471404
165	0x3dbee028	0.09320098
166	0x3c90345c	0.017603092
167	0x3da53068	0.080658734
168	0x3dca1507	0.09867292
169	0xbc6f6229	-0.014610806
170	0xbbba37b6	-0.005682911
171	0xbcc2b01c	-0.023765616
172	0x3c7b646c	0.015343767
173	0x3d07c23c	0.03314422
174	0xbdb1569a	-0.08659096
175	0x3e2a3bd3	0.16624384
176	0x3c9c6165	0.01908941
177	0xbdd8d334	-0.10587159
178	0x3d8be4ed	0.068307735
179	0x3d58eaee	0.05295842
180	0x3e90abe4	0.28256142
181	0x3e0936ed	0.13399859
182	0xbdd5414a	-0.104128435
183	0xbe6257ce	-0.22103807
184	0x3bb6f487	0.005583349
185	0x3d8fd33d	0.070227124
186	0x3cec9d75	0.028883675
187	0xbd39dc21	-0.045375947
188	0xbc64c96e	-0.01396404
189	0x3e223396	0.15839991
190	0x3dbb6d11	0.09151662
191	0xbd9e2769	-0.07722361
192	0x3ccc063a	0.024905313
193	0xbdeb7de0	-0.11498618
194	0x3b160306	0.0022889986
195	0x3d0ad802	0.033897407
196	0xbe1e43bd	-0.15455528
197	0x3ca61e3d	0.02027809
198	0xbe8176e6	-0.25286025
199	0xbe292858	-0.16519296
200	0xbe6d2ad1	-0.23160864
201	0xbde6adff	-0.11263656
202	0xbdbbd541	-0.09171534
203	0xbe2b0ccf	-0.16704105
204	0xbcd8105a	-0.026374985
205	0xbd1eae5e	-0.03874051
206	0x3e12ac79	0.14323606
207	0xbe23261f	-0.15932511
208	0xbe0b26ab	-0.1358897
209	0x3dc59794	0.09648052
210	0x3d7e17d7	0.062034454
211	0xbdfd15b3	-0.123576544
212	0x3d2c31e8	0.04203978
213	0x3c56dea7	0.013114608
214	0xbdaceacf	-0.08443224
215	0x3e085132	0.13312224
216	0x3d6d8ed1	0.05799753
217	0x3c0772d5	0.008267124
218	0x3d57b4cc	0.052662656
219	0x3d1b8126	0.037964962
220	0xbc30756c	-0.010770183
221	0x3d7cc43f	0.061710592
222	0xbc82eac2	-0.015981082
223	0x3d0e6f10	0.034773886
224	0xbc34ef53	-0.011043387
225	0x3ca80588	0.02051045
226	0x3c172d11	0.009227053
227	0x3d0f0d7f	0.03492498
228	0xbd5a71cb	-0.053331178
229	0x3e09c479	0.13453855
230	0xbba03f96	-0.0048903925
231	0xbe146db7	-0.14494978
232	0x3bdd09e9	0.006745566
233	0x3b760e89	0.0037545285
234	0xbd6415d9	-0.055684898
235	0x3c680f4d	0.014163804
236	0xbc95a0af	-0.018265096
237	0xbd22975e	-0.039695136
238	0x3cca7ead	0.024718607
239	0x3cd92f89	0.026511924
240	0x3d48ea0f	0.04905134
241	0x3bc64dba	0.006051746
242	0x3d834f76	0.0641164
243	0xbcbc5aad	-0.022992456
244	0xbd890d56	-0.06691997
245	0x3d3f5909	0.04671577
246	0xbe02d090	-0.12774873
247	0xbdde88a6	-0.10865907
248	0xbd9d5bf6	-0.07683556
249	0x3e0cb6c9	0.13741602
250	0x3df65344	0.120276004
251	0xbb8ff335	-0.004393006
252	0x3d50309f	0.05082762
253	0xbcdf9ace	-0.027295496
254	0x3e360d27	0.17778455
255	0xbd377437	-0.044788565

conv_enc.conv_hidden_2.bias f4 [18]
0	0x3ef8ff8e	0.48632473
1	0xbea01da4	-0.31272614
2	0x3e214eb5	0.1575268
3	0xbd98ab18	-0.074545085
4	0x3eab7196	0.33485097
5	0xbece2485	-0.40262237
6	0xbe80b760	-0.25139904
7	0xbdefb34f	-0.11704122
8	0x3e980a88	0.29695535
9	0x3e7f5d53	0.24937944
10	0xbcb1817f	-0.021668194
11	0x3e12f605	0.14351662
12	0xbe4ddbeb	-0.20103423
13	0xbe74d838	-0.23910606
14	0x3ea17944	0.3153783
15	0xbabfff78	-0.0014648279
16	0x3e5c3f54	0.21508533
17	0x3e62bbd5	0.22141965

conv_enc.conv_hidden_3.weight f4 [9, 18, 3, 3]
0	0x3d3f8c60	0.04676473
1	0x3c219dd9	0.009864294
2	0x3b7106e7	0.0036777796
3	0xbd8928da	-0.06697245
4	0x3d2a0fce	0.04151898
5	0x3c9a33f3	0.0188236
6	0xbdc24ab2	-0.09486903
7	0x3d0e22d3	0.03470118
8	0xbce05998	-0.027386472
9	0x3c8c04f0	0.017092198
10	0xbcc0c4c3	-0.023531323
11	0x3d86ffe0	0.06591773
12	0x3a7a115d	0.00095393305
13	0xbdf40ae7	-0.11916142
14	0xbd40a50b	-0.047032397
15	0xbc43bbb6	-0.011946609
16	0x3d8c071a	0.06837292
17	0x3d3602b7	0.044436183
18	0x3df9ed1b	0.122034274
19	0x3d63fb1b	0.055659395
20	0x3d56bbc8	0.052425176
21	0x3d67ca9d	0.05658971
22	0x3cba6e92	0.022757802
23	0xbda33fb2	-0.07971133
24	0xbe1f333e	-0.15546891
25	0xbd870659	-0.065930076
26	0xbc9edc5f	-0.01939219
27	0xbca116d5	-0.019664207
28	0xbcf28039	-0.029602157
29	0xbcfabc59	-0.03060739
30	0x3bed1505	0.0072351717
31	0x3d6df185	0.05809166
32	0x3ca4a75b	0.020099333
33	0xbc6ae956	-0.014337858
34	0x3be26b40	0.006909758
35	0xbc891e8a	-0.016738195
36	0xbc26aa17	-0.0101723885
37	0xbc11136b	-0.008854727
38	0xbc27c8bf	-0.010240733
39	0x3c849e6d	0.016188825
40	0xbdb84532	-0.08997573
41	0xbc1c2656	-0.009530624
42	0xbd618e45	-0.05506732
43	0x3d854eaf	0.06509148
44	0x3db37db8	0.08764213
45	0xbd98bdef	-0.07458102
46	0x3dafb56c	0.08579525
47	0xbd676862	-0.05649603
48	0x3bb21881	0.00543505
49	0x3d250592	0.040288515
50	0xbb16e2ed	-0.0023023442
51	0xbcf1ad07	-0.029501451
52	0x3d35cdd7	0.044385757
53	0xbbff630b	-0.0077937893
54	0x3c690786	0.014222985
55	0xbb89ef9c	-0.004209472
56	0xbd0614f4	-0.032734826
57	0xbdd87448	-0.10569054
58	0xbd4cfee5	-0.050047774
59	0x3d2c068e	0.04199844
60	0x3dcf88c0	0.10133505
61	0xb8affa29	-8.391246e-05
62	0x3d3bb8e2	0.045830615
63	0x3db5de08	0.0888024
64	0x3d9600ce	0.07324372
65	0x3d931027	0.07180815
66	0xbcea715d	-0.028618509
67	0x3cb842ef	0.022492854
68	0xbdefa929	-0.117021866
69	0xbd216943	-0.039407026
70	0x3b175868	0.0023093466
71	0xbd9a27c2	-0.075271145
72	0xbd036e78	-0.032087773
73	0x3cbcbb04	0.023038395
74	0x3d64f075	0.05589338
75	0x3d5aea3b	0.053446036
76	0xbd9e8f7a	-0.0774221
77	0xbcba12bc	-0.022714011
78	0x3ddc80c9	0.10766751
79	0xbd2522ed	-0.04031651
80	0xbd7d8633	-0.06189556
81	0xbd8b2b71	-0.06795395
82	0xbc60dd5d	-0.013724652
83	0xbc919b5a	-0.017774273
84	0x3d83848b	0.06421765
85	0xbcfa3b67	-0.030545903
86	0xbd156351	-0.03647167
87	0xbd1b3f0f	-0.037901934
88	0x3d5dfb0b	0.05419449
89	0x3d381d2a	0.044949688
90	0x3e00e805	0.12588508
91	0xbde8efbd	-0.113738514
92	0xbc69996b	-0.014257769
93	0xbc11e62f	-0.008904978
94	0xbe049c58	-0.12950265
95	0xbd62650e	-0.055272155
96	0x3df23784	0.11826995
97	0xbc5a306d	-0.01331721
98	0x3dc2c32f	0.095098846
99	0xbc83de4b	-0.016097208
100	0xbd885b97	-0.066580944
101	0xbd83bc06	-0.06432347
102	0xbbb2bc88	-0.0054546036
103	0x3d3cf860	0.046135306
104	0x3d0ff44e	0.035145096
105	0x3d480c96	0.048840128
106	0xbd13e018	-0.036102384
107	0x3d66a6d2	0.056311436
108	0xbe4a20fa	-0.19739142
109	0xbe32d5dd	-0.17464395
110	0xbd9da0f2	-0.076967135
111	0x3c2a3d99	0.010390663
112	0x3d0e325b	0.03471599
113	0x3bbf93e3	0.005846487
114	0x3e0b359d	0.1359467
115	0x3def2b16	0.1167814
116	0x3e26d6d6	0.16292891
117	0x3d8510ac	0.064973205
118	0x3cbeab55	0.023275057
119	0x3da80de0	0.082057714
120	0x3d22c8a7	0.03974214
121	0xbd8ee3e8	-0.069770634
122	0xbc2a5eb0	-0.010398552
123	0x3ae3fa7c	0.0017393376
124	0xbd37c47e	-0.044865124
125	0xbd940feb	-0.072295986
126	0x3db70c9c	0.08937952
127	0xbc03b3c0	-0.008038461
128	0x3d3669d5	0.044534523
129	0xbdb0ee67	-0.08639222
130	0xbc1e3994	-0.009657282
131	0xbd90b36c	-0.07065472
132	0x3d4534d6	0.04814609
133	0x3c87e462	0.016588394
134	0xbcd7b7b6	-0.026332717
135	0x3d23957f	0.039937492
136	0xbd6b53e4	-0.05745305
137	0xbc87fd8a	-0.016600389
138	0x3cdf4e03	0.027258879
139	0x3d14c402	0.03631974
140	0x3c32ea97	0.010920188
141	0xbd88b616	-0.06675355
142	0x3d293450	0.041309655
143	0xbb9bcdc3	-0.0047547533
144	0xbe26e06b	-0.16296546
145	0x3d9587dd	0.073013045
146	0x3e6e1195	0.23248895
147	0xbdbe7f2a	-0.09301598
148	0xbb9b0be6	-0.004731643
149	0x3d811b76	0.06304066
150	0xbe629515	-0.22127183
151	0xbd087fde	-0.03332507
152	0x3e215868	0.1575638
153	0x3de5faae	0.11229454
154	0x3e20166b	0.15633552
155	0x3e2ff4a5	0.17183168
156	0x3dc666ef	0.09687602
157	0x3dd10aeb	0.102071606
158	0x3d3b50e2	0.045731433
159	0x3dec338a	0.11533268
160	0x3e1e84d1	0.15480353
161	0x3dbc7772	0.0920247
162	0xbdc5b63a	-0.096538976
163	0xbdab3537	-0.08359759
164	0x3e10700a	0.1410524
165	0xbe3e2385	-0.18568237
166	0x3e1f28af	0.15542863
167	0xbcd57aef	-0.026059596
168	0x3d244f32	0.04011459
169	0x3bd68750	0.006546892
170	0xbcc03528	-0.023462847
171	0xbe22a7e5	-0.15884359
172	0xbc904c40	-0.017614484
173	0xbdab8898	-0.083756626
174	0xbe001621	-0.12508442
175	0x3dbe95bd	0.09305904
176	0xbc135c2e	-0.008994145
177	0x3e448d1c	0.19194454
178	0x3e1df27e	0.15424535
179	0xbd9b535d	-0.0758426
180	0xbc35f681	-0.011106134
181	0xbdc778f3	-0.09739866
182	0xbdf12d86	-0.11776261
183	0xbda97a48	-0.082752764
184	0x3daf37e5	0.08555583
185	0x3d40151e	0.04689514
186	0x3b01b454	0.0019791322
187	0x3e175e9f	0.14782189
188	0x3deb0641	0.11475802
189	0x3d855baa	0.06511624
190	0x3dbe19fa	0.092822984
191	0xbd4cbab6	-0.04998275
192	0xbe8b235f	-0.27175424
193	0x3e010150	0.12598157
194	0xbdd9c230	-0.106327415
195	0x3e1058e2	0.14096406
196	0xbcc84bc1	-0.024450185
197	0xbc3a0cd3	-0.011355597
198	0xbcf6d440	-0.030130506
199	0xbd7a9c6f	-0.061184343
200	0x3e20e6f3	0.157131
201	0xbdd5f188	-0.10446459
202	0x3d9015d6	0.07035415
203	0xbd87e360	-0.06635165
204	0x3d8e2220	0.069401026
205	0x3b8a1c6a	0.004214813
206	0xbc919619	-0.017771767
207	0xbcc75d75	-0.024336556
208	0xbd5f1c52	-0.054470368
209	0xbd59873d	-0.05310749
210	0x3dd5073a	0.10401769
211	0x3ceabf28	0.028655604
212	0xbd54d375	-0.051959474
213	0x3d5b5c88	0.05355504
214	0x3d39daf6	0.045374833
215	0xbc6a0b94	-0.014284987
216	0xbe59df91	-0.2127669
217	0xbdeeb7da	-0.11656161
218	0x3d6c1400	0.05763626
219	0x3df23c54	0.11827913
220	0x3b431e78	0.00297728
221	0x3d9b4eae	0.07583366
222	0xbc17f79c	-0.009275343
223	0x3dddbf89	0.10827548
224	0x3b8b9776	0.004259999
225	0xba9814aa	-0.0011602838
226	0xbc5d74d6	-0.013516625
227	0x3d3709f5	0.04468723
228	0xbe450ccb	-0.19243161
229	0xbd0743ab	-0.033023518
230	0x3dd4945b	0.10379859
231	0xbd446d7b	-0.04795597
232	0x3e17b14f	0.14813732
233	0x3d3810bd	0.044937838
234	0xbd813062	-0.063080564
235	0x3bfb5368	0.007669855
236	0x3dd5c7b2	0.104384795
237	0xbc99c87f	-0.018772362
238	0xbdbc6284	-0.09198478
239	0xbcd3738e	-0.025811937
240	0x3ded1f71	0.115782626
241	0x3d2d6ffe	0.042343132
242	0xbce6e428	-0.028184965
243	0x3d013e1f	0.031553384
244	0x3d17ece0	0.037091136
245	0xb9078132	-0.00012922732
246	0x3cd91728	0.0265003
247	0xbd1d1c48	-0.03835705
248	0x3d8778b8	0.06614822
249	0xbde0bb90	-0.10973275
250	0x3d3fa619	0.046789262
251	0xbcf5e765	-0.030017564
252	0x3ce63d28	0.028105333
253	0x3e373007	0.17889415
254	0xbd74f835	-0.05980702
255	0xbdc752d5	-0.09732596

conv_enc.conv_hidden_3.bias f4 [9]
0	0x3e8398e8	0.25702596
1	0x3e187f14	0.14892226
2	0xbd5e8b7a	-0.054332234
3	0x3eb3554b	0.3502601
4	0xbf0c1d92	-0.5473262
5	0x3cdc96d9	0.026927399
6	0x3f039423	0.51397914
7	0xbdcf05e9	-0.10108549
8	0x3ec6aa0e	0.38801616

conv_enc.conv_hidden_4.weight f4 [3, 9, 3, 3]
0	0x3db635da	0.0889699
1	0x3d46103d	0.04835533
2	0x3d266ef9	0.040633176
3	0x3d70b185	0.058763046
4	0xbd28f60d	-0.041250277
5	0x3af9a28c	0.0019045635
6	0x3d6273b8	0.05528614
7	0x3d4fefc6	0.050765775
8	0x3dafa932	0.08577193
9	0xbd43dbef	-0.047817167
10	0x3cc9c1aa	0.024628479
11	0xbc221af3	-0.0098941205
12	0x3d65c338	0.05609438
13	0xbd313999	-0.04326782
14	0x3b6bd683	0.0035986013
15	0xbd0db014	-0.03459175
16	0x3d1068fe	0.03525638
17	0xbb41fed0	-0.0029601343
18	0xbbc5a843	-0.0060320213
19	0x3c725b04	0.014792208
20	0x3d4bdfbe	0.049773924
21	0xbd9baade	-0.0760095
22	0xbc9051e9	-0.017617183
23	0x3bed6148	0.007244263
24	0x3dbb71be	0.09152554
25	0xbd81139e	-0.0630257
26	0xbad1a678	-0.0015995046
27	0xbc546b15	-0.0129649835
28	0x3cc0288c	0.023456834
29	0xbc2cd7f3	-0.010549533
30	0x3d1b5b1f	0.037928697
31	0xbbe913fe	-0.007112979
32	0x3c459bf8	0.012061112
33	0xbd13c357	-0.036074962
34	0xbce692b8	-0.028146133
35	0x3ca2ac65	0.019857595
36	0xbc81a3bc	-0.015825145
37	0xbdb2128c	-0.08694944
38	0x3b9f8f3d	0.0048693703
39	0xbd0e936c	-0.03480856
40	0x3dc86968	0.0978573
41	0xbcb9da67	-0.02268715
42	0xbb5d6e5b	-0.00337877
43	0x3d3f018a	0.046632327
44	0x3d3ef078	0.046616048
45	0xbd0d25de	-0.03445994
46	0x3d169d3d	0.036771048
47	0x3a95ad23	0.0011419397
48	0x3d329d6f	0.04360717
49	0xbdac6f72	-0.08419694
50	0x3c1989a3	0.009371194
51	0xbc96ccbe	-0.018408176
52	0x3d1ddc27	0.03854003
53	0xbbe060ee	-0.0068474924
54	0xbd293a6b	-0.041315477
55	0xbd2fdf3e	-0.04293751
56	0x3d648202	0.055788048
57	0xbd016232	-0.031587787
58	0xbc2790f4	-0.010227431
59	0xbd473cf6	-0.04864212
60	0x3c505685	0.01271594
61	0x3c1b9096	0.009494921
62	0x3d104cfc	0.035229668
63	0x3d396ae5	0.04526796
64	0xbd2c9455	-0.042133648
65	0x3b56d800	0.0032782555
66	0xba906d51	-0.0011018907
67	0x3ce835cd	0.028345967
68	0xbcc130cb	-0.023582837
69	0xbd024f9a	-0.031814195
70	0x3d0c9873	0.034325074
71	0xbc6d6e19	-0.014491581
72	0x3cc3d085	0.02390314
73	0xbc49e637	-0.012322954
74	0xbc7746fb	-0.015092607
75	0x3c1c0aee	0.00952409
76	0xbc81b666	-0.015834045
77	0x3c000711	0.007814185
78	0xbcd20113	-0.025635278
79	0x3d433079	0.04765365
80	0xbd1853bb	-0.037189227
81	0xbe359026	-0.1773077
82	0xbdb77c57	-0.08959263
83	0xbdda7ffd	-0.10668943
84	0xbd119668	-0.03554383
85	0x3d4baf25	0.049727578
86	0xbde02ff1	-0.10946644
87	0xbdcebcfc	-0.1009464
88	0xbda2ba72	-0.07945718
89	0xbd4bce6b	-0.049757402
90	0xbd2463d3	-0.040134262
91	0xbe03c2c4	-0.12867266
92	0xbd7705fc	-0.06030844
93	0x3dfb917b	0.122836076
94	0x3e1347b1	0.14382817
95	0x3dc15e39	0.094418
96	0xbda46a35	-0.0802807
97	0xbd91d8e1	-0.071214445
98	0x3c1e2aa4	0.009653721
99	0xbe6269e9	-0.22110714
100	0x3df55e48	0.11980873
101	0x3e32d216	0.17462954
102	0xbec18fa9	-0.37804917
103	0xbdec0c75	-0.115258135
104	0x3e826a43	0.25471696
105	0xbe2d95bb	-0.16951649
106	0x3d033c20	0.03203976
107	0x3e8cd2b3	0.275045
108	0xbd89bb24	-0.06725147
109	0x3e120dc1	0.14263059
110	0x3d16d0c6	0.036820196
111	0xbd80c387	-0.06287294
112	0xbda06c51	-0.0783316
113	0xbda03ec1	-0.07824469
114	0x3cdcb3dc	0.026941232
115	0xbc432ff1	-0.011913286
116	0x3d4f0f06	0.050551437
117	0xbebdbd4b	-0.37058482
118	0xbe09ae21	-0.13445331
119	0xbcd5a09b	-0.02607756
120	0xbe1f0731	-0.15530087
121	0x3e27f457	0.16401802
122	0x3e1b5e54	0.15172702
123	0x3d8769d9	0.06611986
124	0x3e0a74da	0.13521138
125	0x3e7b0e20	0.24517107
126	0xbd77b2b3	-0.060473155
127	0x3d82f09b	0.06393548
128	0x3ec40430	0.38284445
129	0xbdc0033f	-0.09375619
130	0xbdf1c0c9	-0.11804349
131	0x3d3660ec	0.044526026
132	0xbda89bf7	-0.08232873
133	0x3c73e45d	0.014885989
134	0xbe1228e9	-0.14273418
135	0xbd86cd4a	-0.065821245
136	0xbdf8b9cb	-0.12144812
137	0xbe3ae1b4	-0.18250161
138	0xbe176f0b	-0.14788453
139	0xba9aa7ae	-0.001179924
140	0x3d2b97c3	0.041892778
141	0xbdeefb14	-0.11668983
142	0xbc6da01f	-0.014503508
143	0x3d84535a	0.064612105
144	0x3e560456	0.20900092
145	0xbd5aa763	-0.05338229
146	0xbd98b786	-0.07456879
147	0xbda868e0	-0.08223128
148	0xbdb5cd16	-0.08877008
149	0x3cc15dd0	0.023604304
150	0x3a89fda5	0.0010527862
151	0xbc58436e	-0.01319967
152	0x3d8800a7	0.066407494
153	0x3e473142	0.19452384
154	0x3c92b07d	0.017906422
155	0x3cb1ba87	0.021695388
156	0x3c9c18ea	0.019054849
157	0xbde4ebf3	-0.11177816
158	0xbcfbe31c	-0.030747943
159	0xbd8291af	-0.06375443
160	0x3d76b431	0.060230438
161	0xbd8c8bdb	-0.06862613
162	0xbe376df9	-0.17913045
163	0xbdb008e8	-0.08595449
164	0xbdb9ce44	-0.09072545
165	0xbcf265d9	-0.02958958
166	0xbca287d7	-0.019840164
167	0xbda9f904	-0.08299449
168	0xbdd1e9f6	-0.10249703
169	0xbd64baf3	-0.05584235
170	0xbdad5a00	-0.08464432
171	0x3d7c6953	0.061623883
172	0x3cd64631	0.026156517
173	0xbc2c33e2	-0.010510417
174	0xbda46101	-0.080263145
175	0x3d032fc8	0.03202799
176	0x3d230d78	0.039807767
177	0xbd6dbf8c	-0.058044
178	0xbc3fb8fb	-0.011701818
179	0xbcb5c6d1	-0.02218953
180	0x3dff2f27	0.124601655
181	0x3d2cd3c9	0.04219416
182	0x3c7111fb	0.0147137595
183	0xbd8e8210	-0.06958401
184	0x3d1b002c	0.03784196
185	0xbd2f2bec	-0.042766497
186	0x3dfbbbe6	0.12291698
187	0xbddedda3	-0.108821176
188	0xbe048268	-0.12940371
189	0x3d38a12b	0.045075577
190	0x3ce2069b	0.02759104
191	0xbbf17e82	-0.0073698172
192	0xbdfa24e5	-0.12214068
193	0x3d95068a	0.07276638
194	0xbcaf0f0d	-0.021369481
195	0x3d72a373	0.05923791
196	0xbdc97c50	-0.09838164
197	0x3d4fa590	0.050695002
198	0xba116407	-0.0005546216
199	0xbd89a9d3	-0.067218445
200	0x3d54c9e1	0.05195034
201	0xbd2a3050	-0.04154998
202	0xbb892ee9	-0.0041865003
203	0x3da2d6b2	0.07951106
204	0xbd3d6ee0	-0.046248317
205	0xbcbfa2ec	-0.023393117
206	0x3d8a2c72	0.067467585
207	0x3d2881a5	0.041139264
208	0x3ccee6ad	0.02525648
209	0xbd816c23	-0.063194536
210	0xbb830acc	-0.00399909
211	0x3b5dcc1c	0.0033843582
212	0x3d1b845f	0.037968036
213	0xbd5d9f59	-0.054107044
214	0x3d4131ac	0.04716651
215	0xbd4e08d0	-0.050301373
216	0x3e50a996	0.20377192
217	0x3deb9eec	0.11504921
218	0x3e0e6233	0.13904648
219	0xbd99dec2	-0.07513191
220	0xbce2c719	-0.027682828
221	0x3c101892	0.0087949205
222	0x3e3e9d9b	0.18614809
223	0x3d34bb1b	0.04412375
224	0x3e4a0112	0.19726971
225	0x3d9c84ad	0.076424934
226	0xbd51b085	-0.051193733
227	0x3daf121d	0.08548377
228	0x3d16844d	0.036747266
229	0x3cf4d582	0.029886965
230	0xbbe61414	-0.0070214365
231	0xbde8b939	-0.113634534
232	0x3cb490b4	0.022041656
233	0xbdad8fda	-0.08474703
234	0x3de5cf19	0.11221141
235	0x3d303687	0.04302075
236	0xbbd86fa1	-0.006605104
237	0x3d0fc919	0.03510389
238	0xbcaadb69	-0.020856576
239	0xbd9dbb22	-0.077017084
240	0x3d7b5fc3	0.061370622
241	0xbe04f3dc	-0.1298365
242	0xbd9bdc5a	-0.07610388

conv_enc.conv_hidden_4.bias f4 [3]
0	0x3ff5f902	1.9216616
1	0x3d8bb4bb	0.06821581
2	0xbeea0193	-0.45704326

conv_enc.batch_norm.weight f4 [3]
0	0x4098b6fe	4.772338
1	0x40a744d6	5.227153
2	0x4097eeb4	4.7478886

conv_enc.batch_norm.bias f4 [3]
0	0x40403db9	3.0037673
1	0x402b594d	2.6773255
2	0x405f80e8	3.4922428

conv_enc.batch_norm.running_mean f4 [3]
0	0x3f7e62b7	0.99369377
1	0x3b21e37c	0.0024702242
2	0x3b9baba5	0.004750686

conv_enc.batch_norm.running_var f4 [3]
0	0x355ad125	8.1515674e-07
1	0x35b080b2	1.3150477e-06
2	0x36314534	2.6415337e-06

conv_dec.conv_out_hidden_1.weight f4 [156, 3, 3, 3]
0	0x3c2858ba	0.01027506
1	0x3c65ccee	0.01402591
2	0x3cae692f	0.02129039
3	0x3c11e6cc	0.008905124
4	0x3c490c7d	0.012271044
5	0x3c96e89b	0.018421462
6	0x3b093b90	0.0020940043
7	0x3bc11180	0.0058919787
8	0x3c49710e	0.012295021
9	0x3c6b5d4c	0.014365505
10	0x3c35c9fb	0.011095519
11	0x3b96ba30	0.004599832
12	0x3cd9df91	0.026595863
13	0x3cb9dc6c	0.022688113
14	0x3ca1af8d	0.01973703
15	0x3ce4bc4e	0.027921822
16	0x3cb37c1e	0.02190977
17	0x3cc985ef	0.024599997
18	0xbd031393	-0.03200109
19	0xbd0ac729	-0.03388134
20	0xbd0792e8	-0.033099085
21	0xbd11f4b8	-0.035633773
22	0xbd0044a5	-0.031315465
23	0xbcf1d301	-0.02951956
24	0xbd068d2c	-0.032849476
25	0xbcf11c5c	-0.029432468
26	0xbcd68855	-0.026188055
27	0x3c2e16d0	0.010625556
28	0x3c64309d	0.013927606
29	0x3cb3355c	0.02187603
30	0x3c1b751b	0.009488369
31	0x3c478ae6	0.012179112
32	0x3c95834b	0.018251082
33	0x3b421301	0.0029613378
34	0x3bb4ea2d	0.00552108
35	0x3c3ccca9	0.011523404
36	0x3c6c2402	0.014412882
37	0x3c3c854f	0.011506393
38	0x3bb9b213	0.00566698
39	0x3ce2cf7e	0.02768683
40	0x3cc6fc53	0.02429024
41	0x3cb5c3cf	0.022188095
42	0x3ceda9c0	0.029011607
43	0x3cc7575c	0.024333648
44	0x3ce460be	0.027878162
45	0xbd0c831f	-0.034304734
46	0xbd17fe79	-0.03710792
47	0xbd16e5cf	-0.036840256
48	0xbd1f37de	-0.03887164
49	0xbd0f73cf	-0.035022553
50	0xbd0880e4	-0.033326045
51	0xbd13ca7e	-0.036081783
52	0xbd085cfe	-0.03329181
53	0xbcf85669	-0.030314641
54	0x3c2fad87	0.0107225245
55	0x3c5fae64	0.013652418
56	0x3cb40737	0.021976097
57	0x3c1e9e7c	0.00968134
58	0x3c43d121	0.011951716
59	0x3c92afa1	0.017906012
60	0x3b585f69	0.0033015853
61	0x3babd8c5	0.005244347
62	0x3c3462b1	0.011009858
63	0x3c6ff57e	0.014645932
64	0x3c43c86c	0.01194964
65	0x3bd95196	0.0066320403
66	0x3ce8fec6	0.028441798
67	0x3cd009aa	0.025395233
68	0x3cc2431d	0.023713643
69	0x3cf2f9e8	0.02966018
70	0x3cd35420	0.02579695
71	0x3cf2e3cf	0.029649643
72	0xbd121d4c	-0.03567247
73	0xbd208a67	-0.03919449
74	0xbd201be9	-0.039089117
75	0xbd26c36b	-0.04071371
76	0xbd186f68	-0.03721562
77	0xbd11bc1c	-0.035579786
78	0xbd1b7d41	-0.03796125
79	0xbd116c3d	-0.035503615
80	0xbd05b8aa	-0.032646812
81	0x3c30ffe6	0.010803198
82	0x3c5d4c29	0.0135069275
83	0x3cb4bbbe	0.022062179
84	0x3c1dab2f	0.009623333
85	0x3c3fc6ca	0.01170511
86	0x3c90303d	0.017601127
87	0x3b5db4c2	0.0033829664
88	0x3ba3219e	0.0049783727
89	0x3c2d81dc	0.010590043
90	0x3c770f58	0.015079342
91	0x3c4cf0a0	0.012508541
92	0x3bf7062f	0.007538579
93	0x3cef149f	0.029184638
94	0x3cd7840f	0.026308088
95	0x3ccba6f1	0.024859877
96	0x3cf75e48	0.030196324
97	0x3cdc21c6	0.026871573
98	0x3cfc6409	0.03080942
99	0xbd16cd9e	-0.036817186
100	0xbd27976e	-0.0409159
101	0xbd27a705	-0.040930767
102	0xbd2ba314	-0.04190357
103	0xbd1eb9ab	-0.038751286
104	0xbd18facf	-0.037348565
105	0xbd205a91	-0.03914887
106	0xbd171b39	-0.036891196
107	0xbd0c5c77	-0.03426787
108	0x3c33e6b8	0.010980301
109	0x3c5e404b	0.013565133
110	0x3cb572a4	0.022149391
111	0x3c1be573	0.009515154
112	0x3c3d48c8	0.011552997
113	0x3c8e2b52	0.017354641
114	0x3b5683a4	0.0032732273
115	0x3b9ae060	0.0047264546
116	0x3c275459	0.010212981
117	0x3c7b07e0	0.015321702
118	0x3c532743	0.012887779
119	0x3c06c6a4	0.008226071
120	0x3cf1c782	0.029514078
121	0x3cdaf7c2	0.026729468
122	0x3cd02d79	0.025412308
123	0x3cf83532	0.030298803
124	0x3cdee37b	0.02720808
125	0x3cfef574	0.0311229
126	0xbd188b67	-0.03724232
127	0xbd2a613e	-0.041596644
128	0xbd2b0f3f	-0.041762587
129	0xbd2ccac7	-0.04218557
130	0xbd20be28	-0.039243847
131	0xbd1c1333	-0.038104247
132	0xbd213100	-0.03935337
133	0xbd1843c0	-0.037173986
134	0xbd0e6ceb	-0.03477184
135	0x3c2ec81d	0.010667828
136	0x3c5b4766	0.013383722
137	0x3cb8e4c9	0.02257003
138	0x3c156683	0.009118679
139	0x3c3abe75	0.011397948
140	0x3c8fd699	0.017558383
141	0x3b43319d	0.002978421
142	0x3b9071b6	0.0044080867
143	0x3c26e5e0	0.010186642
144	0x3c82ab99	0.015950965
145	0x3c5eef07	0.013606793
146	0x3c12c202	0.008957388
147	0x3cf92589	0.030413406
148	0x3ce25197	0.027626796
149	0x3cd7e2ed	0.026353324
150	0x3cfd6995	0.030934134
151	0x3ce6ceab	0.028174719
152	0x3d02f7b4	0.03197451
153	0xbd1db628	-0.038503796
154	0xbd31112d	-0.04322927
155	0xbd31e553	-0.04343159
156	0xbd322a73	-0.043497514
157	0xbd26bbd2	-0.040706463
158	0xbd22a1b6	-0.039705
159	0xbd26235f	-0.040561076
160	0xbd1d506d	-0.038406778
161	0xbd13dfe5	-0.036102194
162	0x3c2823e5	0.010262464
163	0x3c5822eb	0.013191919
164	0x3cbb6f4e	0.022880223
165	0x3c0d305c	0.008617487
166	0x3c390bbf	0.011294304
167	0x3c910ebf	0.017707227
168	0x3b307c58	0.0026929583
169	0x3b8c5958	0.0042831115
170	0x3c282004	0.010261539
171	0x3c86f184	0.016472585
172	0x3c6779ca	0.014128158
173	0x3c1a9b53	0.009436446
174	0x3cfeaf1c	0.031089358
175	0x3ce70253	0.02819935
176	0x3cdd1d18	0.026991412
177	0x3d010e3d	0.03150772
178	0x3cecb064	0.028892703
179	0x3d053d88	0.032529384
180	0xbd20eddc	-0.03928934
181	0xbd3533c3	-0.044238817
182	0xbd364107	-0.04449561
183	0xbd35c6b1	-0.04437894
184	0xbd2a972b	-0.04164807
185	0xbd26ed79	-0.040753815
186	0xbd296e69	-0.04136506
187	0xbd208f4d	-0.039199162
188	0xbd1797f8	-0.037010163
189	0x3c221f89	0.009895214
190	0x3c52e3f2	0.012871729
191	0x3cbbdb77	0.022931797
192	0x3c06e60b	0.008233557
193	0x3c35c7ec	0.011095028
194	0x3c9010ed	0.017586196
195	0x3b284c7c	0.0025680354
196	0x3b86a8ad	0.004109463
197	0x3c258594	0.010102648
198	0x3c8b6c1f	0.01701933
199	0x3c705449	0.014668533
200	0x3c243fb7	0.010024956
201	0x3d01c2e1	0.03167999
202	0x3cebed02	0.028799538
203	0x3ce318ab	0.027721724
204	0x3d02ca56	0.031931244
205	0x3cf24771	0.029575082
206	0x3d07c0ea	0.03314296
207	0xbd23b39f	-0.039966222
208	0xbd3954d5	-0.045246918
209	0xbd3acc7e	-0.045605175
210	0xbd3901d5	-0.045167763
211	0xbd2e6731	-0.04257888
212	0xbd2b42e4	-0.04181184
213	0xbd2c7fd3	-0.04211409
214	0xbd23c32b	-0.03998105
215	0xbd1b652a	-0.037938274
216	0x3c1aa822	0.0094395
217	0x3c46da50	0.012137011
218	0x3cbe5077	0.023231728
219	0x3bff97c6	0.007800075
220	0x3c2c4bdf	0.010516136
221	0x3c8df4a5	0.01732857
222	0x3b15f1a6	0.002287963
223	0x3b585654	0.003301044
224	0x3c1af087	0.00945676
225	0x3c944cc7	0.018103017
226	0x3c8426dc	0.01613181
227	0x3c42beb1	0.011886285
228	0x3d07a4af	0.03311604
229	0x3cfc0aab	0.030766806
230	0x3cf5cc04	0.030004509
231	0x3d071d2e	0.032986812
232	0x3d0243d1	0.031802956
233	0x3d111d15	0.035428125
234	0xbd2e0b02	-0.042490967
235	0xbd482525	-0.04886355
236	0xbd4a228c	-0.049349353
237	0xbd448b03	-0.047984134
238	0xbd3c6dca	-0.04600314
239	0xbd3aa2b8	-0.045565337
240	0xbd37a051	-0.044830624
241	0xbd3151e3	-0.043290984
242	0xbd29be2a	-0.04144112
243	0x3c15d7b8	0.00914567
244	0x3c44cbbf	0.0120114675
245	0x3cc3556b	0.023844441
246	0x3bec50ff	0.007211804
247	0x3c2873f5	0.010281553
248	0x3c8fa317	0.017533822
249	0x3ae9fef5	0.0017852472
250	0x3b40890a	0.0029378557
251	0x3c1ab444	0.009442393
252	0x3c9a5d10	0.018843204
253	0x3c8aea57	0.016957445
254	0x3c4f6af8	0.012659781
255	0x3d0b8df0	0.03407091

conv_dec.conv_out_hidden_1.bias f4 [156]
0	0x3cd34f10	0.025794536
1	0x3cfcf5a4	0.03087885
2	0x3d0c5824	0.034263745
3	0x3d16cd9b	0.036817174
4	0x3d1a641d	0.03769313
5	0x3d247bd2	0.040157147
6	0x3d2b08b8	0.04175636
7	0x3d32450a	0.043522872
8	0x3d4d54ed	0.05012982
9	0x3d59f20b	0.053209346
10	0x3d629c05	0.055324573
11	0x3d5c3dd5	0.053769905
12	0x3d62dfd1	0.05538923
13	0x3d741085	0.059586067
14	0x3d791af1	0.06081671
15	0x3d814028	0.06311065
16	0x3d836ad2	0.06416859
17	0x3d890f19	0.06692333
18	0x3d8f53e5	0.069984235
19	0x3d951be9	0.07280714
20	0x3d984f86	0.07437043
21	0x3d9c60f4	0.0763568
22	0x3da037f9	0.07823176
23	0x3da53d62	0.080683485
24	0x3da90df9	0.08254618
25	0x3dabc552	0.08387245
26	0x3db30056	0.087402984
27	0x3db83a51	0.08995498
28	0x3dbe033f	0.09277963
29	0x3dbebc64	0.093132764
30	0x3dc45ab7	0.09587615
31	0x3dc9d893	0.098557614
32	0x3dcdd4c3	0.10050347
33	0x3dceb3c0	0.10092878
34	0x3dcfcc4e	0.1014639
35	0x3dd97003	0.10617068
36	0x3de0ca25	0.10976056
37	0x3de6a80d	0.11262522
38	0x3de97754	0.11399713
39	0x3deca07d	0.11554048
40	0x3df5bc0b	0.11998757
41	0x3df86410	0.121284604
42	0x3dfe164a	0.12406595
43	0x3e008eaa	0.12554422
44	0x3e01eacc	0.12687224
45	0x3e035bef	0.12828039
46	0x3e039d5a	0.12852994
47	0x3e04f9ee	0.12985966
48	0x3e071c46	0.13194379
49	0x3e088065	0.13330229
50	0x3e0a37ba	0.1349782
51	0x3e0a291d	0.13492246
52	0x3e0aab1c	0.13541836
53	0x3e094cbb	0.13408177
54	0x3e07fdb3	0.13280372
55	0x3e05af77	0.13055216
56	0x3e0471ce	0.12934038
57	0x3e0592cc	0.1304428
58	0x3e0b3543	0.13594536
59	0x3e10fefd	0.1415977
60	0x3e14d361	0.1453376
61	0x3e16da28	0.14731658
62	0x3e19cdfd	0.15019985
63	0x3e1c5569	0.15266956
64	0x3e1f2477	0.15541254
65	0x3e235c0c	0.15953082
66	0x3e28ef48	0.16497529
67	0x3e2b8344	0.16749293
68	0x3e2ddc39	0.1697854
69	0x3e320adf	0.1738696
70	0x3e3732d0	0.17890477
71	0x3e3b8383	0.18311886
72	0x3e3cb59e	0.18428656
73	0x3e3e3534	0.18574983
74	0x3e3fbbb6	0.1872395
75	0x3e40c286	0.18824205
76	0x3e42e058	0.19030893
77	0x3e447de0	0.19188643
78	0x3e47caeb	0.19511001
79	0x3e4cef9a	0.20013276
80	0x3e5031c6	0.20331487
81	0x3e5316a3	0.20614104
82	0x3e53c616	0.20681033
83	0x3e5689b1	0.20950963
84	0x3e58e251	0.21180083
85	0x3e5b790b	0.21432893
86	0x3e5eadf9	0.21746053
87	0x3e608834	0.21926957
88	0x3e66e350	0.2254765
89	0x3e6e11cb	0.23248975
90	0x3e74f041	0.23919775
91	0x3e78221a	0.24231759
92	0x3e7c30a6	0.24627933
93	0x3e82a758	0.25518298
94	0x3e87a823	0.26495466
95	0x3e8c9040	0.27453804
96	0x3e90c663	0.28276357
97	0x3e91d36e	0.2848162
98	0x3e955a92	0.29170662
99	0x3e95b39f	0.29238603
100	0x3e9a5ef5	0.3015057
101	0x3e9cd215	0.3062903
102	0x3ea40511	0.32035115
103	0x3eaa4e6f	0.33262965
104	0x3eb103f9	0.34573343
105	0x3eb6bf02	0.35692602
106	0x3ebbf691	0.36711553
107	0x3ebf53bb	0.3736857
108	0x3ec2f7b2	0.38079602
109	0x3ec489e3	0.3838645
110	0x3ec1813f	0.3779392
111	0x3ed4d566	0.4156906
112	0x3ee53616	0.44767827
113	0x3ef1fb4e	0.47262043
114	0x3ee195f7	0.44059727
115	0x3ed6f4c8	0.41983628
116	0x3ed3e38b	0.4138454
117	0x3ed63e54	0.41844428
118	0x3ed7b4b5	0.42130056
119	0x3ed83c66	0.4223358
120	0x3ed90653	0.42387637
121	0x3eda0cdc	0.42587936
122	0x3edb5e0a	0.42845184
123	0x3edcb2b0	0.43105078
124	0x3edd1779	0.4318197
125	0x3edec2eb	0.43508086
126	0x3edff1a6	0.4373905
127	0x3edbda87	0.4294016
128	0x3ed9cba7	0.42538187
129	0x3ed82661	0.4221678
130	0x3edbe543	0.4294835
131	0x3eddde47	0.43333647
132	0x3ee0c0b8	0.43897033
133	0x3ee28fac	0.44250238
134	0x3ee6a95f	0.45051095
135	0x3ee85702	0.45378882
136	0x3eedf42a	0.46475345
137	0x3eeeb086	0.46619052
138	0x3ef29493	0.47378978
139	0x3ef28a78	0.47371268
140	0x3ef89882	0.48553854
141	0x3ef88456	0.48538464
142	0x3efa7870	0.48920012
143	0x3ef660e3	0.48120794
144	0x3efb2dd7	0.4905841
145	0x3efbecb3	0.49204025
146	0x3efc58c7	0.49286482
147	0x3efa3661	0.48869613
148	0x3ef89ec9	0.48558643
149	0x3efca752	0.49346405
150	0x3efa9148	0.48938966
151	0x3efdf24e	0.49598926
152	0x3ef9168d	0.48650017
153	0x3ef8cb34	0.48592532
154	0x3ef4aeac	0.47789514
155	0x3ef5058c	0.47855794

exp_avg f4 [27, 156, 3, 3]
0	0xaf304a38	-1.6033475e-10
1	0xaf9d9ab6	-2.8668062e-10
2	0x2f105c7f	1.3129585e-10
3	0x9c126ea4	-4.8450347e-22
4	0xabc491d8	-1.3967117e-12
5	0xaa110e98	-1.288365e-13
6	0x9ce1baa5	-1.4937498e-21
7	0x9c414f85	-6.396112e-22
8	0x1d66b8ed	3.053585e-21
9	0xaf5e888d	-2.0239295e-10
10	0xafc04489	-3.4973294e-10
11	0xaf28cb75	-1.5351793e-10
12	0x9d5ab3f8	-2.8945101e-21
13	0xab6be235	-8.3802697e-13
14	0xa9ae1184	-7.730191e-14
15	0x9d07a8ff	-1.795447e-21
16	0x9ce6e228	-1.5278583e-21
17	0x9c8db54d	-9.377462e-22
18	0xafa89837	-3.0667177e-10
19	0xb006bc5a	-4.901658e-10
20	0xaf4306fc	-1.7737628e-10
21	0x9d9de13d	-4.1790445e-21
22	0xab9d417a	-1.1173694e-12
23	0xa9e81754	-1.03069165e-13
24	0x9d5eec3a	-2.9503582e-21
25	0x9d91d32b	-3.8599523e-21
26	0x9dce1273	-5.4546822e-21
27	0xafd8b335	-3.9417505e-10
28	0xb016b563	-5.482745e-10
29	0x2e704381	5.4629638e-11
30	0x9daa9436	-4.515187e-21
31	0xac09994a	-1.9553963e-12
32	0xab8f53a8	-1.018398e-12
33	0x9d7d4c80	-3.352382e-21
34	0x9e0e1ecc	-7.523786e-21
35	0x9ff9a259	-1.05724184e-19
36	0xafcf41ef	-3.769993e-10
37	0xb00afbc5	-5.0561894e-10
38	0x2f9035ba	2.6231622e-10
39	0x9d9f0259	-4.2089377e-21
40	0xac30e9a8	-2.514081e-12
41	0xabbde4c1	-1.349275e-12
42	0x9d77c99e	-3.2794411e-21
43	0x9e345b01	-9.54794e-21
44	0xa040b2b1	-1.6322157e-19
45	0xaff690ce	-4.485003e-10
46	0xb016c4e7	-5.4849497e-10
47	0x2fc1381d	3.5146366e-10
48	0x9dadb0f8	-4.59757e-21
49	0xac4491d8	-2.7934235e-12
50	0xac0812ed	-1.9337268e-12
51	0x9d81a265	-3.4313928e-21
52	0x9e01a362	-6.86299e-21
53	0xa0297e65	-1.4356677e-19
54	0xb008fc41	-4.9834986e-10
55	0xb021ead2	-5.890516e-10
56	0x2ff75819	4.4991635e-10
57	0x9dac1ef8	-4.556004e-21
58	0xac583a08	-3.072766e-12
59	0xac1d8b47	-2.2388356e-12
60	0x9d85199b	-3.5231282e-21
61	0x9da99c5e	-4.4895607e-21
62	0xa013a1b7	-1.2504891e-19
63	0xb025bf4e	-6.029851e-10
64	0xb03c505e	-6.850821e-10
65	0x300498ff	4.823874e-10
66	0x9db1bd92	-4.704752e-21
67	0xac6be235	-3.3521079e-12
68	0xac46abd8	-2.8232885e-12
69	0x9d8d8cdd	-3.746804e-21
70	0x9e427236	-1.0293893e-20
71	0x9fa45b8a	-6.960814e-20
72	0xb06e1f01	-8.6627955e-10
73	0xb0802629	-9.324072e-10
74	0x306a5e7a	8.5262963e-10
75	0x9e00e140	-6.822844e-21
76	0xacb0e9a8	-5.028162e-12
77	0xaca3bf04	-4.6539456e-12
78	0x9de00160	-5.929373e-21
79	0x9f0c8406	-2.975536e-20
80	0xa097431a	-2.56248e-19
81	0xb081c8b6	-9.443031e-10
82	0xb089d73c	-1.0029235e-09
83	0x3085e4c2	9.74204e-10
84	0x9e14e256	-7.88186e-21
85	0xacc491d8	-5.586847e-12
86	0xacb93763	-5.2641654e-12
87	0x9e01af91	-6.8655094e-21
88	0x9f27e1ac	-3.5550297e-20
89	0xa0d61ea9	-3.62733e-19
90	0xb087fccd	-9.894393e-10
91	0xb0933f87	-1.0713713e-09
92	0x3089645d	9.996587e-10
93	0x9e21a078	-8.556453e-21
94	0xacce65ed	-5.866188e-12
95	0xacba1f7c	-5.2899334e-12
96	0x9e07902a	-7.176653e-21
97	0x9f27e4c4	-3.5552856e-20
98	0xa0e99a7f	-3.9573972e-19
99	0xb0743b16	-8.885065e-10
100	0xb084c98c	-9.661547e-10
101	0x305c636f	8.017684e-10
102	0x9e0371e8	-6.9586375e-21
103	0xacb0e9a8	-5.028162e-12
104	0xaca3bf04	-4.6539456e-12
105	0x9de83394	-6.146322e-21
106	0x9efe7da4	-2.694526e-20
107	0xa0cc79e1	-3.4639597e-19
108	0xb075a3c0	-8.9363184e-10
109	0xb0861185	-9.754763e-10
110	0x3074a62f	8.9002844e-10
111	0x9dfd0672	-6.6975207e-21
112	0xacbabdbe	-5.3075036e-12
113	0xaca4a71f	-4.6797145e-12
114	0x9df29270	-6.420828e-21
115	0x9eec40b0	-2.5014226e-20
116	0xa0c29430	-3.296294e-19
117	0xb08a54e2	-1.0064947e-09
118	0xb09281e4	-1.0659815e-09
119	0x309979e6	1.1166861e-09
120	0x9e0eaaad	-7.552712e-21
121	0xacd83a08	-6.145532e-12
122	0xacc4dbaa	-5.5950427e-12
123	0x9e0591c1	-7.0711026e-21
124	0x9eeb82e6	-2.4935731e-20
125	0xa0adc7e2	-2.9439611e-19
126	0xb08d02e9	-1.0259927e-09
127	0xb09600df	-1.0914184e-09
128	0x30977dca	1.1022447e-09
129	0x9e0f9601	-7.601377e-21
130	0xacd83a08	-6.145532e-12
131	0xacc4dbaa	-5.5950427e-12
132	0x9e05587e	-7.059261e-21
133	0x9eb69069	-1.9329726e-20
134	0xa0530b39	-1.7876108e-19
135	0xb095977c	-1.0884231e-09
136	0xb09f54c3	-1.1592863e-09
137	0x309ac8ec	1.126208e-09
138	0x9e192542	-8.107457e-21
139	0xace20e22	-6.4248754e-12
140	0xaccf97d9	-5.9001523e-12
141	0x9e0672cf	-7.117643e-21
142	0x9eca89fb	-2.144465e-20
143	0xa05732cb	-1.8228014e-19
144	0xb097b2bd	-1.1037496e-09
145	0xb0a33dc8	-1.187737e-09
146	0x3095a5a6	1.0888257e-09
147	0x9e18b74a	-8.084716e-21
148	0xace20e22	-6.4248754e-12
149	0xaccf97d9	-5.9001523e-12
150	0x9e04cc66	-7.0302904e-21
151	0x9ea0b32d	-1.7014764e-20
152	0xa04054da	-1.6291108e-19
153	0xb09ffe13	-1.1640985e-09
154	0xb0ad2ae2	-1.2599595e-09
155	0x3098dcd1	1.1122215e-09
156	0x9e210e01	-8.526165e-21
157	0xacebe235	-6.7042157e-12
158	0xacda5404	-6.2052603e-12
159	0x9e0ce64b	-7.459162e-21
160	0x9eda05ff	-2.3084128e-20
161	0xa0997ed2	-2.600313e-19
162	0xb0acebd3	-1.2581672e-09
163	0xb0ba371e	-1.3548946e-09
164	0x3099fd10	1.120414e-09
165	0x9e2bb8c8	-9.0908765e-21
166	0xacf5b649	-6.9835565e-12
167	0xaceee452	-6.7897155e-12
168	0x9e1f1990	-8.422676e-21
169	0x9f0c8c12	-2.9762017e-20
170	0xa0ef9a9b	-4.0590484e-19
171	0xb0b5b8b8	-1.3221984e-09
172	0xb0c2b875	-1.4167784e-09
173	0x30a19053	1.1755311e-09
174	0x9e33502d	-9.492761e-21
175	0xacff8a67	-7.2629017e-12
176	0xacf9a07c	-7.094823e-12
177	0x9e29d736	-8.99129e-21
178	0x9f19b502	-3.2548736e-20
179	0xa0f27812	-4.107585e-19
180	0xb0b62010	-1.3251356e-09
181	0xb0c30299	-1.4188856e-09
182	0x30aeac79	1.2709186e-09
183	0x9e33b8c8	-9.514393e-21
184	0xad04af3f	-7.542244e-12
185	0xacfa8891	-7.1205893e-12
186	0x9e286297	-8.914234e-21
187	0x9f2086cc	-3.399282e-20
188	0xa0f9be0d	-4.2308006e-19
189	0xb0ba79f6	-1.3567945e-09
190	0xb0c960e0	-1.4652208e-09
191	0x30a8a877	1.2271489e-09
192	0x9e39c828	-9.83521e-21
193	0xad04af3f	-7.542244e-12
194	0xacfa8891	-7.1205893e-12
195	0x9e26a603	-8.822297e-21
196	0x9f1dbb3f	-3.340093e-20
197	0xa0f5f0fb	-4.1664082e-19
198	0xb0bb179e	-1.3612753e-09
199	0xb0cd449e	-1.4935215e-09
200	0x30a6c3d2	1.2133745e-09
201	0x9e385dc8	-9.760272e-21
202	0xad04af3f	-7.542244e-12
203	0xacf0b482	-6.8412507e-12
204	0x9e22e622	-8.623799e-21
205	0x9f15f05c	-3.1750798e-20
206	0xa0ec683d	-4.0048934e-19
207	0xb0bfaa59	-1.3945495e-09
208	0xb0d1f714	-1.5276975e-09
209	0x30ae0b77	1.2663425e-09
210	0x9e393c53	-9.806293e-21
211	0xad09994a	-7.821585e-12
212	0xacfb70a9	-7.146357e-12
213	0x9e2308ab	-8.630941e-21
214	0x9f198643	-3.251007e-20
215	0xa103ae47	-4.461518e-19
216	0xb0c0281f	-1.3981242e-09
217	0xb0d250d2	-1.5302482e-09
218	0x30adf056	1.2655714e-09
219	0x9e35db12	-9.627363e-21
220	0xad09994a	-7.821585e-12
221	0xacfb70a9	-7.146357e-12
222	0x9e225eca	-8.5958105e-21
223	0x9f31879a	-3.7593375e-20
224	0xa115bad8	-5.073045e-19
225	0xb0c23a01	-1.4131843e-09
226	0xb0d15bb7	-1.5232818e-09
227	0x30af13d7	1.2738565e-09
228	0x9e36a201	-9.668501e-21
229	0xad09994a	-7.821585e-12
230	0xad02a262	-7.425701e-12
231	0x9e1c93ba	-8.28912e-21
232	0x9f47b9b5	-4.2293502e-20
233	0xa11b21a2	-5.2560555e-19
234	0xb0cec62f	-1.50448e-09
235	0xb0dc18da	-1.601417e-09
236	0x30c1d43d	1.410292e-09
237	0x9e45674a	-1.0450453e-20
238	0xad136d60	-8.380269e-12
239	0xad0d5e91	-8.03592e-12
240	0x9e2bcffe	-9.095676e-21
241	0x9f61621a	-4.772675e-20
242	0xa137bf5e	-6.2256084e-19
243	0xb0d54537	-1.5517462e-09
244	0xb0df8fc5	-1.6266247e-09
245	0x30d8384d	1.573207e-09
246	0x9e4da202	-1.0886112e-20
247	0xad1d417a	-8.9389555e-12
248	0xad181ac1	-8.64614e-12
249	0x9e36af18	-9.671208e-21
250	0x9f6fad89	-5.0753764e-20
251	0xa143ee48	-6.638393e-19
252	0xb0da1657	-1.5867937e-09
253	0xb0e6cbd8	-1.6792638e-09
254	0x30df1419	1.6231098e-09
255	0x9e57a3e4	-1.1415897e-20
